…
 Layer (type)                   Output Shape         Param #     Connected to
==================================================================================================
 image_input (InputLayer)       [(None, 224, 224, 3  0           []
                                )]

 conv2d (Conv2D)                (None, 224, 224, 16  448         ['image_input[0][0]']
                                )

 max_pooling2d (MaxPooling2D)   (None, 112, 112, 16  0           ['conv2d[0][0]']
                                )

 conv2d_1 (Conv2D)              (None, 112, 112, 32  4640        ['max_pooling2d[0][0]']
                                )

 max_pooling2d_1 (MaxPooling2D)  (None, 56, 56, 32)  0           ['conv2d_1[0][0]']

 conv2d_2 (Conv2D)              (None, 56, 56, 64)   18496       ['max_pooling2d_1[0][0]']

 max_pooling2d_2 (MaxPooling2D)  (None, 28, 28, 64)  0           ['conv2d_2[0][0]']

 dropout (Dropout)              (None, 28, 28, 64)   0           ['max_pooling2d_2[0][0]']

 flatten (Flatten)              (None, 50176)        0           ['dropout[0][0]']

 text_embedding (InputLayer)    [(None, 384)]        0           []

 dense (Dense)                  (None, 128)          6422656     ['flatten[0][0]']

 dense_2 (Dense)                (None, 128)          49280       ['text_embedding[0][0]']

 tf.nn.gelu (TFOpLambda)        (None, 128)          0           ['dense[0][0]']

 tf.nn.gelu_1 (TFOpLambda)      (None, 128)          0           ['dense_2[0][0]']

 dense_1 (Dense)                (None, 128)          16512       ['tf.nn.gelu[0][0]']

 dense_3 (Dense)                (None, 128)          16512       ['tf.nn.gelu_1[0][0]']

 dropout_1 (Dropout)            (None, 128)          0           ['dense_1[0][0]']

 dropout_2 (Dropout)            (None, 128)          0           ['dense_3[0][0]']

 add (Add)                      (None, 128)          0           ['dense[0][0]',
                                                                  'dropout_1[0][0]']

 add_1 (Add)                    (None, 128)          0           ['dense_2[0][0]',
                                                                  'dropout_2[0][0]']

 layer_normalization (LayerNorm  (None, 128)         256         ['add[0][0]']
 alization)

 layer_normalization_1 (LayerNo  (None, 128)         256         ['add_1[0][0]']
 rmalization)

 concatenate (Concatenate)      (None, 256)          0           ['layer_normalization[0][0]',
                                                                  'layer_normalization_1[0][0]']

 dropout_3 (Dropout)            (None, 256)          0           ['concatenate[0][0]']

 VQA_Classifier (Dense)         (None, 2)            514         ['dropout_3[0][0]']

==================================================================================================
Total params: 6,529,570
Trainable params: 6,529,570
Non-trainable params: 0
__________________________________________________________________________________________________
TRAINING model
Epoch 1/20
C:\Users\afkar\.conda\envs\tf\lib\site-packages\keras\engine\functional.py:637: UserWarning: Input dict contained keys ['question_answer', 'file_name'] which did not match any model input. They will be ignored by the model.
…
