…
 b'Is this a fenced area ? no' b'Is this gentleman in a competition ? yes'
 b'Is this a restaurant ? no']
Label : [0 1]
-----------------------------------------
BUILDING model
Model: "model"
__________________________________________________________________________________________________
 Layer (type)                   Output Shape         Param #     Connected to
==================================================================================================
 image_input (InputLayer)       [(None, 224, 224, 3  0           []
                                )]

 inception_v3 (Functional)      (None, 5, 5, 2048)   21802784    ['image_input[0][0]']

 dropout (Dropout)              (None, 5, 5, 2048)   0           ['inception_v3[0][0]']

 flatten (Flatten)              (None, 51200)        0           ['dropout[0][0]']

 text_embedding (InputLayer)    [(None, 384)]        0           []

 dense (Dense)                  (None, 128)          6553728     ['flatten[0][0]']

 dense_2 (Dense)                (None, 128)          49280       ['text_embedding[0][0]']

 tf.nn.gelu (TFOpLambda)        (None, 128)          0           ['dense[0][0]']

 tf.nn.gelu_1 (TFOpLambda)      (None, 128)          0           ['dense_2[0][0]']

 dense_1 (Dense)                (None, 128)          16512       ['tf.nn.gelu[0][0]']

 dense_3 (Dense)                (None, 128)          16512       ['tf.nn.gelu_1[0][0]']

 dropout_1 (Dropout)            (None, 128)          0           ['dense_1[0][0]']

 dropout_2 (Dropout)            (None, 128)          0           ['dense_3[0][0]']

 add (Add)                      (None, 128)          0           ['dense[0][0]',
                                                                  'dropout_1[0][0]']

 add_1 (Add)                    (None, 128)          0           ['dense_2[0][0]',
                                                                  'dropout_2[0][0]']

 layer_normalization (LayerNorm  (None, 128)         256         ['add[0][0]']
 alization)

 layer_normalization_1 (LayerNo  (None, 128)         256         ['add_1[0][0]']
 rmalization)

 concatenate_2 (Concatenate)    (None, 256)          0           ['layer_normalization[0][0]',
                                                                  'layer_normalization_1[0][0]']

 dropout_3 (Dropout)            (None, 256)          0           ['concatenate_2[0][0]']

 VQA_Classifier (Dense)         (None, 2)            514         ['dropout_3[0][0]']

==================================================================================================
Total params: 28,439,842
Trainable params: 28,405,410
Non-trainable params: 34,432
__________________________________________________________________________________________________
TRAINING model
Epoch 1/10
C:\Users\afkar\.conda\envs\tf\lib\site-packages\keras\engine\functional.py:637: UserWarning: Input dict contained keys ['question_answer', 'file_name'] which did not match any model input. They will be ignored by the model.
…
