…
 b'Are there any any leaves in the picture ? yes'
 b'Is this a Japanese meal ? yes' b'Could this be professional game ? no']
Label : [0 1]
-----------------------------------------
BUILDING model
Model: "model"
__________________________________________________________________________________________________
 Layer (type)                   Output Shape         Param #     Connected to
==================================================================================================
 image_input (InputLayer)       [(None, 224, 224, 3  0           []
                                )]

 NASNet (Functional)            (None, 7, 7, 1056)   4269716     ['image_input[0][0]']

 conv2d (Conv2D)                (None, 7, 7, 64)     608320      ['NASNet[0][0]']

 flatten (Flatten)              (None, 3136)         0           ['conv2d[0][0]']

 text_embedding (InputLayer)    [(None, 384)]        0           []

 dense (Dense)                  (None, 128)          401536      ['flatten[0][0]']

 dense_2 (Dense)                (None, 128)          49280       ['text_embedding[0][0]']

 tf.nn.gelu (TFOpLambda)        (None, 128)          0           ['dense[0][0]']

 tf.nn.gelu_1 (TFOpLambda)      (None, 128)          0           ['dense_2[0][0]']

 dense_1 (Dense)                (None, 128)          16512       ['tf.nn.gelu[0][0]']

 dense_3 (Dense)                (None, 128)          16512       ['tf.nn.gelu_1[0][0]']

 dropout (Dropout)              (None, 128)          0           ['dense_1[0][0]']

 dropout_1 (Dropout)            (None, 128)          0           ['dense_3[0][0]']

 add_4 (Add)                    (None, 128)          0           ['dense[0][0]',
                                                                  'dropout[0][0]']

 add_5 (Add)                    (None, 128)          0           ['dense_2[0][0]',
                                                                  'dropout_1[0][0]']

 layer_normalization (LayerNorm  (None, 128)         256         ['add_4[0][0]']
 alization)

 layer_normalization_1 (LayerNo  (None, 128)         256         ['add_5[0][0]']
 rmalization)

 concatenate_4 (Concatenate)    (None, 256)          0           ['layer_normalization[0][0]',
                                                                  'layer_normalization_1[0][0]']

 dropout_2 (Dropout)            (None, 256)          0           ['concatenate_4[0][0]']

 VQA_Classifier (Dense)         (None, 2)            514         ['dropout_2[0][0]']

==================================================================================================
Total params: 5,362,902
Trainable params: 5,326,164
Non-trainable params: 36,738
__________________________________________________________________________________________________
TRAINING model
Epoch 1/30
C:\Users\afkar\.conda\envs\tf\lib\site-packages\keras\engine\functional.py:637: UserWarning: Input dict contained keys ['question_answer', 'file_name'] which did not match any model input. They will be ignored by the model.
…
