…
 b'Are there any any baskets on the bikes ? no']
Label : [0 1]
-----------------------------------------
BUILDING model
Model: "model"
__________________________________________________________________________________________________
 Layer (type)                   Output Shape         Param #     Connected to
==================================================================================================
 image_input (InputLayer)       [(None, 224, 224, 3  0           []
                                )]

 patches (Patches)              (None, None, 3072)   0           ['image_input[0][0]']

 patch_encoder (PatchEncoder)   (None, 49, 286)      892892      ['patches[0][0]']

 layer_normalization (LayerNorm  (None, 49, 286)     572         ['patch_encoder[0][0]']
 alization)

 multi_head_attention (MultiHea  (None, 49, 286)     984412      ['layer_normalization[0][0]',
 dAttention)                                                      'layer_normalization[0][0]']

 add (Add)                      (None, 49, 286)      0           ['multi_head_attention[0][0]',
                                                                  'patch_encoder[0][0]']

 layer_normalization_1 (LayerNo  (None, 49, 286)     572         ['add[0][0]']
 rmalization)

 dense_1 (Dense)                (None, 49, 572)      164164      ['layer_normalization_1[0][0]']

 dropout (Dropout)              (None, 49, 572)      0           ['dense_1[0][0]']

 dense_2 (Dense)                (None, 49, 286)      163878      ['dropout[0][0]']

 dropout_1 (Dropout)            (None, 49, 286)      0           ['dense_2[0][0]']

 add_1 (Add)                    (None, 49, 286)      0           ['dropout_1[0][0]',
                                                                  'add[0][0]']

 layer_normalization_2 (LayerNo  (None, 49, 286)     572         ['add_1[0][0]']
 rmalization)

 multi_head_attention_1 (MultiH  (None, 49, 286)     984412      ['layer_normalization_2[0][0]',
 eadAttention)                                                    'layer_normalization_2[0][0]']

 add_2 (Add)                    (None, 49, 286)      0           ['multi_head_attention_1[0][0]',
                                                                  'add_1[0][0]']

 layer_normalization_3 (LayerNo  (None, 49, 286)     572         ['add_2[0][0]']
 rmalization)

 dense_3 (Dense)                (None, 49, 572)      164164      ['layer_normalization_3[0][0]']

 dropout_2 (Dropout)            (None, 49, 572)      0           ['dense_3[0][0]']

 dense_4 (Dense)                (None, 49, 286)      163878      ['dropout_2[0][0]']

 dropout_3 (Dropout)            (None, 49, 286)      0           ['dense_4[0][0]']

 add_3 (Add)                    (None, 49, 286)      0           ['dropout_3[0][0]',
                                                                  'add_2[0][0]']

 layer_normalization_4 (LayerNo  (None, 49, 286)     572         ['add_3[0][0]']
 rmalization)

 multi_head_attention_2 (MultiH  (None, 49, 286)     984412      ['layer_normalization_4[0][0]',
 eadAttention)                                                    'layer_normalization_4[0][0]']

 add_4 (Add)                    (None, 49, 286)      0           ['multi_head_attention_2[0][0]',
                                                                  'add_3[0][0]']

 layer_normalization_5 (LayerNo  (None, 49, 286)     572         ['add_4[0][0]']
 rmalization)

 dense_5 (Dense)                (None, 49, 572)      164164      ['layer_normalization_5[0][0]']

 dropout_4 (Dropout)            (None, 49, 572)      0           ['dense_5[0][0]']

 dense_6 (Dense)                (None, 49, 286)      163878      ['dropout_4[0][0]']

 dropout_5 (Dropout)            (None, 49, 286)      0           ['dense_6[0][0]']

 add_5 (Add)                    (None, 49, 286)      0           ['dropout_5[0][0]',
                                                                  'add_4[0][0]']

 layer_normalization_6 (LayerNo  (None, 49, 286)     572         ['add_5[0][0]']
 rmalization)

 multi_head_attention_3 (MultiH  (None, 49, 286)     984412      ['layer_normalization_6[0][0]',
 eadAttention)                                                    'layer_normalization_6[0][0]']

 add_6 (Add)                    (None, 49, 286)      0           ['multi_head_attention_3[0][0]',
                                                                  'add_5[0][0]']

 layer_normalization_7 (LayerNo  (None, 49, 286)     572         ['add_6[0][0]']
 rmalization)

 dense_7 (Dense)                (None, 49, 572)      164164      ['layer_normalization_7[0][0]']

 dropout_6 (Dropout)            (None, 49, 572)      0           ['dense_7[0][0]']

 dense_8 (Dense)                (None, 49, 286)      163878      ['dropout_6[0][0]']

 dropout_7 (Dropout)            (None, 49, 286)      0           ['dense_8[0][0]']

 add_7 (Add)                    (None, 49, 286)      0           ['dropout_7[0][0]',
                                                                  'add_6[0][0]']

 layer_normalization_8 (LayerNo  (None, 49, 286)     572         ['add_7[0][0]']
 rmalization)

 flatten (Flatten)              (None, 14014)        0           ['layer_normalization_8[0][0]']

 dense_9 (Dense)                (None, 512)          7175680     ['flatten[0][0]']

 dropout_8 (Dropout)            (None, 512)          0           ['dense_9[0][0]']

 dense_10 (Dense)               (None, 128)          65664       ['dropout_8[0][0]']

 dropout_9 (Dropout)            (None, 128)          0           ['dense_10[0][0]']

==================================================================================================
Total params: 13,389,200
Trainable params: 13,389,200
Non-trainable params: 0
__________________________________________________________________________________________________
Model: "model_1"
__________________________________________________________________________________________________
 Layer (type)                   Output Shape         Param #     Connected to
==================================================================================================
 image_input (InputLayer)       [(None, 224, 224, 3  0           []
                                )]

 patches (Patches)              (None, None, 3072)   0           ['image_input[0][0]']

 patch_encoder (PatchEncoder)   (None, 49, 286)      892892      ['patches[0][0]']

 layer_normalization (LayerNorm  (None, 49, 286)     572         ['patch_encoder[0][0]']
 alization)

 multi_head_attention (MultiHea  (None, 49, 286)     984412      ['layer_normalization[0][0]',
 dAttention)                                                      'layer_normalization[0][0]']

 add (Add)                      (None, 49, 286)      0           ['multi_head_attention[0][0]',
                                                                  'patch_encoder[0][0]']

 layer_normalization_1 (LayerNo  (None, 49, 286)     572         ['add[0][0]']
 rmalization)

 dense_1 (Dense)                (None, 49, 572)      164164      ['layer_normalization_1[0][0]']

 dropout (Dropout)              (None, 49, 572)      0           ['dense_1[0][0]']

 dense_2 (Dense)                (None, 49, 286)      163878      ['dropout[0][0]']

 dropout_1 (Dropout)            (None, 49, 286)      0           ['dense_2[0][0]']

 add_1 (Add)                    (None, 49, 286)      0           ['dropout_1[0][0]',
                                                                  'add[0][0]']

 layer_normalization_2 (LayerNo  (None, 49, 286)     572         ['add_1[0][0]']
 rmalization)

 multi_head_attention_1 (MultiH  (None, 49, 286)     984412      ['layer_normalization_2[0][0]',
 eadAttention)                                                    'layer_normalization_2[0][0]']

 add_2 (Add)                    (None, 49, 286)      0           ['multi_head_attention_1[0][0]',
                                                                  'add_1[0][0]']

 layer_normalization_3 (LayerNo  (None, 49, 286)     572         ['add_2[0][0]']
 rmalization)

 dense_3 (Dense)                (None, 49, 572)      164164      ['layer_normalization_3[0][0]']

 dropout_2 (Dropout)            (None, 49, 572)      0           ['dense_3[0][0]']

 dense_4 (Dense)                (None, 49, 286)      163878      ['dropout_2[0][0]']

 dropout_3 (Dropout)            (None, 49, 286)      0           ['dense_4[0][0]']

 add_3 (Add)                    (None, 49, 286)      0           ['dropout_3[0][0]',
                                                                  'add_2[0][0]']

 layer_normalization_4 (LayerNo  (None, 49, 286)     572         ['add_3[0][0]']
 rmalization)

 multi_head_attention_2 (MultiH  (None, 49, 286)     984412      ['layer_normalization_4[0][0]',
 eadAttention)                                                    'layer_normalization_4[0][0]']

 add_4 (Add)                    (None, 49, 286)      0           ['multi_head_attention_2[0][0]',
                                                                  'add_3[0][0]']

 layer_normalization_5 (LayerNo  (None, 49, 286)     572         ['add_4[0][0]']
 rmalization)

 dense_5 (Dense)                (None, 49, 572)      164164      ['layer_normalization_5[0][0]']

 dropout_4 (Dropout)            (None, 49, 572)      0           ['dense_5[0][0]']

 dense_6 (Dense)                (None, 49, 286)      163878      ['dropout_4[0][0]']

 dropout_5 (Dropout)            (None, 49, 286)      0           ['dense_6[0][0]']

 add_5 (Add)                    (None, 49, 286)      0           ['dropout_5[0][0]',
                                                                  'add_4[0][0]']

 layer_normalization_6 (LayerNo  (None, 49, 286)     572         ['add_5[0][0]']
 rmalization)

 multi_head_attention_3 (MultiH  (None, 49, 286)     984412      ['layer_normalization_6[0][0]',
 eadAttention)                                                    'layer_normalization_6[0][0]']

 add_6 (Add)                    (None, 49, 286)      0           ['multi_head_attention_3[0][0]',
                                                                  'add_5[0][0]']

 layer_normalization_7 (LayerNo  (None, 49, 286)     572         ['add_6[0][0]']
 rmalization)

 dense_7 (Dense)                (None, 49, 572)      164164      ['layer_normalization_7[0][0]']

 text_embedding (InputLayer)    [(None, 384)]        0           []

 dropout_6 (Dropout)            (None, 49, 572)      0           ['dense_7[0][0]']

 dense_11 (Dense)               (None, 128)          49280       ['text_embedding[0][0]']

 dense_8 (Dense)                (None, 49, 286)      163878      ['dropout_6[0][0]']

 tf.nn.gelu (TFOpLambda)        (None, 128)          0           ['dense_11[0][0]']

 dropout_7 (Dropout)            (None, 49, 286)      0           ['dense_8[0][0]']

 dense_12 (Dense)               (None, 128)          16512       ['tf.nn.gelu[0][0]']

 add_7 (Add)                    (None, 49, 286)      0           ['dropout_7[0][0]',
                                                                  'add_6[0][0]']

 dropout_10 (Dropout)           (None, 128)          0           ['dense_12[0][0]']

 layer_normalization_8 (LayerNo  (None, 49, 286)     572         ['add_7[0][0]']
 rmalization)

 add_8 (Add)                    (None, 128)          0           ['dense_11[0][0]',
                                                                  'dropout_10[0][0]']

 flatten (Flatten)              (None, 14014)        0           ['layer_normalization_8[0][0]']

 layer_normalization_9 (LayerNo  (None, 128)         256         ['add_8[0][0]']
 rmalization)

 concatenate (Concatenate)      (None, 14142)        0           ['flatten[0][0]',
                                                                  'layer_normalization_9[0][0]']

 dropout_11 (Dropout)           (None, 14142)        0           ['concatenate[0][0]']

 VQA_Classifier (Dense)         (None, 2)            28286       ['dropout_11[0][0]']

==================================================================================================
Total params: 6,242,190
Trainable params: 6,242,190
Non-trainable params: 0
__________________________________________________________________________________________________
TRAINING model
Epoch 1/40
C:\Users\afkar\.conda\envs\tf\lib\site-packages\keras\engine\functional.py:637: UserWarning: Input dict contained keys ['question_answer', 'file_name'] which did not match any model input. They will be ignored by the model.
…
